(AZ)svm-binary/weights/model.pth (torch, 2195 bytes, 4 tensors)

hidden.weight f4 [10, 2]
-0.84616834 -1.0230347 -0.08805013 0.2630339 -0.59081984 -0.3310061 0.8015859 0.99444336
0.28085878 0.021222927 0.25644565 0.6580172 -0.6265868 -0.60153407 0.29866958 0.2494403
0.33268294 -0.715285 0.50781596 0.7951856
00000000: 7d9e 58bf cdf2 82bf a053 b4bd 61ac 863e
00000010: f83f 17bf a279 a9be bc34 4d3f d793 7e3f
00000020: b9cc 8f3e b4db ad3c d84c 833e d173 283f
00000030: fe67 20bf 23fe 19bf 38eb 983e 476d 7f3e
00000040: 6b55 aa3e eb1c 37bf 3a00 023f 4991 4b3f

hidden.bias f4 [10]
0.62056285 -0.35161945 -0.17397118 -0.17279951 -0.5984597 -0.06314819 -0.38546276 0.06864444
-0.24500987 0.17517015
00000000: 35dd 1e3f 7707 b4be 8025 32be 5bf2 30be
00000010: a834 19bf d753 81bd 605b c5be 7595 8c3d
00000020: dee3 7abe ce5f 333e

predict.weight f4 [2, 10]
-0.9354134 0.26317808 -0.046009663 0.74541414 -0.28532368 0.19171724 -0.13839944 0.080426306
-0.0115404045 0.64297956 0.76303303 0.20075035 0.36215442 -0.54612195 -0.2735904 -0.47975236
0.19410677 -0.37980726 0.2742075 -0.32661468
00000000: 4177 6fbf 47bf 863e a174 3cbd 76d3 3e3f
00000010: f215 92be 8651 443e 95b8 0dbe 8cb6 a43d
00000020: f713 3dbc 4f9a 243f 2256 433f 8091 4d3e
00000030: 4e6c b93e a6ce 0bbf 0a14 8cbe 1aa2 f5be
00000040: edc3 463e 1976 c2be ed64 8c3e 0a3a a7be

predict.bias f4 [2]
0.07424799 -0.41340527
00000000: 550f 983d dba9 d3be
